chicago.pth (torch, 51871 bytes, 3 tensors)

linear1.weight f4 [32, 392]
-0.015700325 -0.022364829 -0.03352861 0.01117565 -0.06959851 -0.10445209 -0.009925877 -0.039219964
-0.0069962214 0.026298905 0.02197241 -0.013031339 -0.024249865 -0.048621885 -0.08518306 -0.011322704
-0.01784901 0.04543835 0.00038455738 -0.0044843843 0.062316313 -0.023639439 -0.06342345 0.039013706
-0.052998435 -0.021564856 -0.06268261 -0.039099872 0.010126768 -0.042194445 -0.038737625 -0.012261889
-0.011902243 -0.019175518 -0.068490855 -0.029104384 -0.011791334 -0.00083338126 0.011933002 0.011034604
0.007387049 -0.011702037 0.03288219 -0.012092834 -0.006515595 0.0011838874 0.036805797 -0.009179308
-0.07203819 0.00017835152 -0.0035541232 -0.059548065 0.0054555926 -0.054568782 -0.019455258 -0.050597772
0.023335937 -0.052446328 -0.029551763 -0.0040797708 0.013933729 -0.051161967 -0.011261827 -0.005351461
0.013745019 0.036000483 0.009707149 0.0024321505 0.019241454 0.037513327 0.024798678 -6.660434e-05
-0.03212839 -0.0438879 0.00014472689 0.004142474 -0.0032387844 -0.027783 -0.040683456 -0.056690313
0.032709252 0.012617658 0.04066224 -0.012196015 0.01784008 -0.033122376 0.035476025 -0.0114561515
-0.00954028 0.018357608 -0.0096658 0.02734022 0.039585903 0.0122586 0.035107724 -0.023912538
-0.024445653 -0.02141223 -0.012475433 -0.024935009 -0.03559084 0.05051032 -0.05813528 -0.05769882
-0.036127992 0.015753554 -0.06540623 0.039768465 0.00017562266 -0.040979326 0.0045221713 0.014854687
0.0058808206 -0.024610108 -0.00033113238 -0.004505127 -0.03155163 0.018245375 -0.020615429 0.0012402299
0.042804826 -0.022201298 -0.06742344 0.0017673193 -0.018759117 0.00033090718 -0.021025946 -0.030515136
-0.009170553 0.032706928 -0.013814811 0.034543015 -0.0320787 0.009360873 0.0008672826 0.0011824418
0.004492974 -0.015067697 -0.018984979 -0.011792728 0.008893318 0.033719175 -0.017283304 -0.019273818
0.010138119 -0.011631747 -0.019477325 -0.038790874 0.032211438 -0.025396833 -0.010375253 0.018099587
-0.03316798 -0.025575353 0.04823307 -0.027286883 -0.0029517224 0.024692006 -0.008253641 -0.019943198
-0.060183905 -0.04411341 -0.02189274 0.02005955 -0.04980749 0.019987836 -0.042563044 0.041144643
0.042864673 0.02367876 -0.020853538 -0.061607502 0.005256838 -0.036749557 0.013648939 0.043470934
-0.024472442 -0.012011801 0.044062205 0.014249652 -0.01996309 -0.041865945 -0.012661531 -0.0016225125
-0.020820197 -0.028410181 -0.0046144244 0.010279213 -0.02451682 0.005157612 -0.010057793 -0.075106606
-0.05808786 0.010122148 -0.009063134 -0.009010746 0.009868543 -0.011726594 -0.05427989 -0.064932026
-0.025639892 -0.06669239 -0.06368542 0.047733825 -0.09117324 -0.010755587 0.01297974 0.046740588
-0.0037276673 -0.03759146 0.008457777 -0.01874856 -0.014789087 -0.03040662 0.013519651 0.00055738405
0.032429814 -0.0141687775 -0.046995223 -0.024015088 -0.07810654 0.0047555184 -0.017537143 -0.025504725
-0.026565518 -0.020861072 -0.06839614 0.008592999 -0.092778765 -0.0069333166 -0.044630453 0.026907373
-0.027404452 0.0010638337 -0.048585255 -0.04028987 -0.046810124 -0.005070991 -0.048683345 0.015759278
-0.036287095 -0.0030462875 -0.012785068 0.02212591 0.037541185 -0.016192898 -0.03483898 0.00081748376
-0.048095725 -0.020115308 0.03725144 -0.07402443 -0.030607698 -0.024546627 0.0011891151 -0.06492399
00000000: f89d 80bc 7236 b7bc 4c55 09bd 131a 373c
00000010: aa89 8ebd faea d5bd 25a0 22bc 1da5 20bd
00000020: 8f40 e5bb cd70 d73c 7cff b33c 6681 55bc
00000030: a7a7 c6bc be27 47bd 7574 aebd dd82 39bc
00000040: 1638 92bc 901d 3a3d 6b9e c939 bef1 92bb
00000050: 643f 7f3d 7fa7 c1bc 27e4 81bd d6cc 1f3d
00000060: e314 59bd c8a8 b0bc bd5f 80bd 3027 20bd
00000070: beea 253c 15d4 2cbd 58ab 1ebd 17e6 48bc
00000080: a001 43bc fa15 9dbc ef44 8cbd 516c eebc
00000090: 7030 41bc 4577 5aba a382 433c 7cca 343c
000000a0: 0f0f f23b e7b9 3fbc 7aaf 063d 0621 46bc
000000b0: c680 d5bb ab2c 9b3a adc1 163d cf64 16bc
000000c0: c288 93bd df03 3b39 4bec 68bb ace8 73bd
000000d0: d4c4 b23b 8483 5fbd a260 9fbc 9c3f 4fbd
000000e0: 022b bf3c f6d1 56bd 8a16 f2bc 99af 85bb
000000f0: 4c4a 643c 368f 51bd 8783 38bc 4f5b afbb
00000100: ca32 613c 3e75 133d bc0a 1f3c b764 1f3b
00000110: 41a0 9d3c 93a7 193d 9926 cb3c efad 8bb8
00000120: 0f99 03bd ccc3 33bd d4c1 1739 97bd 873b
00000130: c941 54bb 2d99 e3bc b2a3 26bd 1a34 68bd
00000140: 23fa 053d 4bba 4e3c 738d 263d cbd1 47bc
00000150: 5c25 923c 54ab 07bd 4f4f 113d 95b2 3bbc
00000160: d64e 1cbc b262 963c 4e5d 1ebc 99f8 df3c
00000170: d424 223d 4cd8 483c 1ecd 0f3d 3ae4 c3bc
00000180: 4042 c8bc b368 afbc c265 4cbc 8144 ccbc
00000190: b3c7 11bd e9e3 4e3d 421f 6ebd 9955 6cbd
000001a0: f2fa 13bd 990d 813c b4f3 85bd 42e4 223d
000001b0: 5927 3839 f0d9 27bd b92e 943b 1361 733c
000001c0: e6b3 c03b 239b c9bc d69b adb9 bf9f 93bb
000001d0: 483c 01bd 5377 953c b0e1 a8bc 368f a23a
000001e0: 1d54 2f3d 7fdf b5bc 4d15 8abd 65a5 e73a
000001f0: b8ac 99bc 9c7d ad39 9b3e acbc e1fa f9bc
00000200: 1640 16bc b3f7 053d 8457 62bc fa7c 0d3d
00000210: f464 03bd 595e 193c 5a5a 633a 2afc 9a3a
00000220: cc39 933b 80de 76bc 6386 9bbc 4936 41bc
00000230: 47b5 113c 1e1d 0a3d b795 8dbc 20e4 9dbc
00000240: 5a1a 263c 1593 3ebc e98e 9fbc 2ee3 1ebd
00000250: 24f0 033d 050d d0bc f7fc 29bc 9645 943c
00000260: 26db 07bd 6783 d1bc 0a90 453d be88 dfbc
00000270: af71 41bb e446 ca3c 483a 07bc eb5f a3bc
00000280: 6683 76bd 43b0 34bd 6758 b3bc ed53 a43c
00000290: f002 4cbd 88bd a33c 9656 2ebd 4987 283d
000002a0: de92 2f3d f5f9 c13c 0ad5 aabc 2658 7cbd
000002b0: 8e41 ac3b b486 16bd cd9f 5f3c 940e 323d
000002c0: 6e7a c8bc 25cd 44bc 927a 343d 5f77 693c
000002d0: a289 a3bc a07b 2bbd 4f72 4fbc 7caa d4ba
000002e0: 1e8f aabc 78bc e8bc 9934 97bb 256a 283c
000002f0: 80d7 c8bc 2f01 a93b 71c9 24bc 7ed1 99bd
00000300: 89ed 6dbd 5ed7 253c 8a7d 14bc cfa1 13bc
00000310: abaf 213c e620 40bc 9754 5ebd 15fb 84bd
00000320: c00a d2bc 0596 88bd 806d 82bd 8b84 433d
00000330: 09b9 babd 3438 30bc faa8 543c 0f73 3f3d
00000340: e14b 74bb 81f9 19bd 7d92 0a3c 9596 99bc
00000350: ed4d 72bc 4e17 f9bc 8781 5d3c 691d 123a
00000360: 20d5 043d 2924 68bc 107e 40bd 4abb c4bc
00000370: 52f6 9fbd 2ed4 9b3b 0eaa 8fbc 49ef d0bc
00000380: ee9f d9bc d7e4 aabc 4713 8cbd a6c9 0c3c
00000390: cb02 bebd e030 e3bb 6cce 36bd da6c dc3c
000003a0: 4d7f e0bc 5670 8b3a 5501 47bd fe06 25bd
000003b0: f9bb 3fbd 8e2a a6bb 3068 47bd 9a19 813c
000003c0: c7a1 14bd 39a4 47bb 7678 51bc 6541 b53c
000003d0: c9c4 193d f8a6 84bc 51b3 0ebd 684c 563a
000003e0: 0600 45bd dcc8 a4bc f794 183d 1f9a 97bd
000003f0: ffbc fabc 0216 c9bc 15dc 9b3a def6 84bd

linear1.bias f4 [32]
0.021427006 0.007651945 0.09136719 0.032976657 -0.049466364 0.021408511 0.029783295 0.0354987
-0.06338726 0.04339095 -0.022565052 0.0030833997 0.002275791 0.090844125 -0.046494283 0.03095494
0.029276425 0.021064987 -0.0025873438 -0.029831534 -0.042753868 -0.0056421235 -0.0307312 -0.05514308
-0.011746393 0.043760948 -0.028231699 0.018392887 -0.04020657 0.019365137 -0.04640632 0.012097845
00000000: b087 af3c 2bbd fa3b b91e bb3d 8812 073d
00000010: 3e9d 4abd e760 af3c 19fc f33c 1667 113d
00000020: 2ed1 81bd b5ba 313d 58da b8bc dd12 4a3b
00000030: 7025 153b 7c0c ba3d ca70 3ebd 3795 fd3c
00000040: 1dd5 ef3c 7b90 ac3c 6d90 29bb 4361 f4bc
00000050: ae1e 2fbd 90e1 b8bb ffbf fbbc b6dd 61bd
00000060: f173 40bc ae3e 333d 2a46 e7bc aeac 963c
00000070: a5af 24bd a3a3 9e3c 8e14 3ebd 0a36 463c

linear2.weight f4 [1, 32]
-0.29718024 -0.20539363 0.20137265 -0.2817321 -0.16843809 0.51696765 0.28677365 -0.14946996
-0.121090285 0.22229017 -0.0817452 -0.32308567 -0.17710115 0.18733552 -0.2756854 0.18282278
-0.22521973 0.13516249 0.14222306 0.20107748 0.20532015 -0.12158731 -0.37308103 -0.31492767
-0.15719426 0.48220983 -0.15519007 0.09978824 0.33096093 0.17404895 -0.07839427 0.13259548
00000000: 0228 98be b552 52be a234 4e3e 313f 90be
00000010: 097b 2cbe fe57 043f ffd3 923e a70e 19be
00000020: 2ffe f7bd 09a0 633e 076a a7bd 7c6b a5be
00000030: 015a 35be e2d4 3f3e a326 8dbe e535 3b3e
00000040: 00a0 66be 0968 0a3e eca2 113e 41e7 4d3e
00000050: 723f 523e c502 f9bd 7a04 bfbe 333e a1be
00000060: 88f7 20be 35e4 f63e 25ea 1ebe c75d cc3d
00000070: b673 a93e e339 323e 2d8d a0bd 1cc7 073e
